best_model.pth (torch, 16683 bytes, 6 tensors)

fc1.weight f4 [32, 37]
00000000: 25e3 8dbc 94af 5d3d 9e80 493d d274 8e3c
00000010: adc6 763c 5dfb d33c 111a 4f3d 420d 5d3d
00000020: 1d73 c63d d2b1 213d 3fbb 5c3e 1ff5 2bbf
00000030: 9b63 e8be 588f fbbe 8287 e7bf 9908 d93c
00000040: e34d c33d 390d b33d d468 9b3d bdfe a8bc
00000050: cac1 5c3d a44f cf3d ab54 b03d 9c2b 343e
00000060: a3d4 c93d 4494 5e3a 49e4 403d 39fe 593d
00000070: d4a6 de3c 9e85 0fbd 9194 0cbc a603 eb3c
00000080: 5d9b df3c 4f56 783b 073c e03c 03ff a5bc
00000090: bb0b 4e3a 6f78 e13d 0c21 373e 8467 0d3d
000000a0: 4e9f be3d b773 aebd bc7b 843c 6f86 2abe
000000b0: 83a5 f23b ce08 40be 3155 1fbe 7d5d 0ebd
000000c0: 950e 043c 7b47 203d dbd4 f23d 27ae 933d
000000d0: 17a6 fcbd bc61 313e ac4d c93d 25c4 e33d
000000e0: aae5 7fbe 173d b6bd a1b5 6ebd 8759 923c
000000f0: 4e93 3dbd 981c 643c 50fe ffbe 1bc3 953e
00000100: 56f8 153e 6797 2cbe 3434 4bbf bd31 0a3e
00000110: 739f 0c3e 3510 0f3e cb24 3f3e da40 6fbc
00000120: 0477 8a3b fe59 c4b9 b83a 2bbe a51a cd3d
00000130: 3e2a 623e 7ece bebe 0d67 22be 84d3 b6be
00000140: 4948 60be 9276 723e 2441 62be f23c 9dbf
00000150: c6c3 fcbe 93b1 11be b7d2 0d3e 933f f9bd
00000160: fcdd f0bd 923e 50bd cd42 8fbe d680 a73e
00000170: 9afd 4abe 87d2 eebd 8f09 bc3d f642 a2be
00000180: f486 10bd dae5 09bf cf9f b9bd ab9e 8dbe
00000190: be4d 8ebe bf5d 893e 1978 69be dd0b 76bf
000001a0: 2d95 35be c77f 9abe 00dd 80bd be71 0ebf
000001b0: a3ab d3be 8216 823d 8c9f babb edba c83e
000001c0: 702d 17bf 62a9 b1be 4a11 c6be 04b0 d5bf
000001d0: f7a7 0abd 4c54 e8bb 8e56 01bc 3176 24bd
000001e0: 1d2b f8bc abf6 d4bc d817 d93b 584f a3bc
000001f0: 3d7a 63bd 6896 efbc b78f 05be 7bed 38bd
00000200: 4c3d 51bd 7759 2cbd 0c68 f7bc b67f 55bc
00000210: b5c7 423c a290 fd3c b05b 1dbc 3a1f 7e3c
00000220: c5db 27bd e7e6 503d 00d9 6b3d ec6c 593e
00000230: 021c 813e b77c 813b c304 a93c ed0b 8ab9
00000240: 2aa2 8f3b 8aca 40bd f2ae 04bc 5fd0 9ebb
00000250: 7ec5 52be 8a30 44be e0f9 64be 0cbe 2fbe
00000260: dee2 0cbe 8d8e e73d b04a 4bbe 922c aabe
00000270: e41c bfbe 50d3 dabf 744a 11be 5955 3d3c
00000280: ce13 a93c 8b7c 70bd b025 25be c831 e8bd
00000290: e29b b2bd bcd8 c3bc d03e 21bd c7f6 c23d
000002a0: 47de 5abe bbfb 213d 677d c13d 2d91 533d
000002b0: 271f 91be 0041 8ebd 5e28 86be 59d6 803e
000002c0: eb73 cf3d 7d06 d53c bbb6 163e 1e69 20bf
000002d0: ef51 223e ce57 08bf 3c41 b0bf 0499 23bd
000002e0: 3a7e 393c abf5 56bc 705c bbbb e3ac a33b
000002f0: 9709 52be 2e0e e1b9 6fc3 7fbd 568c 863d
00000300: c673 7f3d f723 0b3e 8511 543d 7aa1 42bc
00000310: 0f80 d5bd 0652 06bd ed4e ffbd f719 23bd
00000320: 18e1 d2bc 120b e6bc d4a0 5d3d d601 a2bc
00000330: 9f70 b2bd 9552 ac3e 032e dabe 529d c0bc
00000340: 4bf0 abbc 92b9 4abf 0462 aebd e065 a5bd
00000350: dbc3 5c3b 7ab6 cd3d 3890 d03d eb10 183e
00000360: b003 00bd bcaf a4be 669c 1ebe 6f78 8abf
00000370: 7f17 083e 4cea b43c 5131 f53b 9309 373d
00000380: 842a 4d3d bfe5 7a3d b9c1 223d e04f 1abe
00000390: d1e7 cabd 4bd9 8e3c d7c7 a43e 1075 d83e
000003a0: 62a8 943b 2268 343e 2106 6a3d 5329 443e
000003b0: 79ca d03d 8a2d 4abd 6339 27bd af39 673d
000003c0: a039 ad3c 20c3 123e 7f4e 00be be8a 5dbd
000003d0: 7456 053e c2c4 2f3e 0ceb db3e c21a fabc
000003e0: f73a 763d 3228 06bd 5672 7dbd 30b0 04be
000003f0: b819 103c 4d8b 343d 90d0 8dbc f892 d63d
-0.017320225 0.054122522 0.049194925 0.017389689 0.015062016 0.025876695 0.05056197 0.05396772
0.09689925 0.039476223 0.21555804 -0.671709 -0.45388493 -0.491328 -1.8088229 0.026493357
0.0953634 0.087427564 0.07588354 -0.020629281 0.05389575 0.10122612 0.08609899 0.1759476
0.0985501 0.0008490721 0.04709271 0.05322096 0.02717916 -0.035039537 -0.008580343 0.028688263
0.027295763 0.003789324 0.027372373 -0.0202632 0.00078600243 0.11009299 0.178837 0.03452255
0.09307729 -0.085181646 0.016172282 -0.16652845 0.0074049844 -0.18753359 -0.15559842 -0.034757126
0.008060117 0.03913067 0.11857005 0.07210951 -0.123363666 0.17322439 0.09829268 0.11121396
-0.24989954 -0.08898371 -0.058278684 0.017864956 -0.04628306 0.013922833 -0.49998713 0.29250416
0.14645514 -0.1685463 -0.7937653 0.13495536 0.137327 0.13971026 0.18666379 -0.014602864
0.0042256135 -0.00037451083 -0.16721618 0.10014848 0.22086427 -0.37266916 -0.15859623 -0.3570825
-0.21902575 0.23678043 -0.22095162 -1.2284224 -0.49368113 -0.14227895 0.13849913 -0.12170329
-0.1176109 -0.05084092 -0.27980652 0.32715482 -0.19823304 -0.11661249 0.09181511 -0.31691712
-0.03528495 -0.5386635 -0.09063684 -0.27660117 -0.27793688 0.26829335 -0.2279972 -0.9611185
-0.17732687 -0.3017561 -0.062921524 -0.55642307 -0.41341886 0.06351949 -0.005695289 0.39205113
-0.5905371 -0.3469954 -0.38685066 -1.6694341 -0.03385159 -0.007090127 -0.007894171 -0.04015178
-0.030293996 -0.025996527 0.006625157 -0.019935295 -0.055536497 -0.029246524 -0.13043104 -0.045148354
-0.051083848 -0.042077508 -0.03020098 -0.013030937 0.011888434 0.030952755 -0.00960438 0.015510375
-0.040981073 0.051001456 0.057579994 0.21232957 0.2521668 0.0039516347 0.020632153 -0.00026330297
0.004383345 -0.047068156 -0.008098351 -0.004846617 -0.2058315 -0.19159141 -0.22360945 -0.17162341
-0.13758418 0.11306486 -0.1985271 -0.3323713 -0.3732673 -1.7095737 -0.14188558 0.011555993
0.020639326 -0.058712523 -0.16127658 -0.1133762 -0.087211385 -0.023907058 -0.039366543 0.09519725
-0.21373855 0.03954671 0.09447747 0.051652122 -0.2834408 -0.069459915 -0.26202673 0.25163534
0.101295315 0.02600407 0.14718144 -0.62660396 0.15851568 -0.5325898 -1.3769908 -0.03994085
0.011321599 -0.013120095 -0.0057178065 0.004994975 -0.2051147 -0.0004292591 -0.06244224 0.06569736
0.06236627 0.13587938 0.05177452 -0.011879319 -0.10424816 -0.032793067 -0.12466226 -0.039819684
-0.025742099 -0.02808145 0.054108456 -0.019776266 -0.08712887 0.33656755 -0.4261323 -0.023512516
-0.020988604 -0.7918941 -0.08514789 -0.08076072 0.0033686075 0.1004457 0.101837575 0.14850204
-0.031253517 -0.32165325 -0.15489349 -1.0818003 0.13290213 0.022084378 0.0074826856 0.044686865
0.050089374 0.06125426 0.03973553 -0.15069532 -0.09907497 0.017437598 0.32183716 0.42276812
0.0045366744 0.17617849 0.05713475 0.19156389 0.101948686 -0.049359836 -0.040826213 0.056451496
0.021145642 0.14332247 -0.12529944 -0.054087393 0.1302126 0.17164901 0.42952764 -0.030530337
0.060114827 -0.032753177 -0.061876617 -0.12957835 0.008795194 0.04407816 -0.017311364 0.10477251

fc1.bias f4 [32]
00000000: 05e5 bdbd 34bb babd 1869 2a3e 96db 2d3e
00000010: 2fd3 603e de1b 10bd 7077 27bd 96a3 933d
00000020: d5eb 5d3e b64a 3e3e 62b5 b83d 22b4 c339
00000030: 7340 913d 38fe 0dbe 2e4b e93d dc8e 82bd
00000040: 95f0 38bd fe8d c03d 3a4e b93d 2cf4 fbbd
00000050: 741f 08be c036 20bd 454d 9f3c cc58 363e
00000060: c4da 71bd adab 85bd 1f0a d53b 6a8a bd3d
00000070: ad2f cc3d fb99 89bd 3501 3dbe 9d49 27be
-0.09272198 -0.091177374 0.16641653 0.16978297 0.2195556 -0.035182826 -0.04088539 0.07208936
0.21671994 0.18583187 0.09018971 0.00037327508 0.07092371 -0.13866508 0.113912925 -0.063749045
-0.045151312 0.09402083 0.09048124 -0.123024315 -0.13293248 -0.039114714 0.019446025 0.17807311
-0.05904652 -0.06526885 0.0065014507 0.09254916 0.09970031 -0.067188226 -0.18457492 -0.16336675

fc2.weight f4 [64, 32]
00000000: a830 debe 80c3 8f3d 6d24 b8be fab3 103f
00000010: 547b 263d b23f c6bd 0991 57be 15d7 39bd
00000020: ab54 44be 1e85 26bd 315e 2e3d 07ee 363e
00000030: 09ac c43d ca2e 94bd 5ec8 a53d 7cfc 8dbc
00000040: 28a0 8ebe ad4c c5bd 13a6 d1bc 6602 97bd
00000050: ee2f 0fbd 44fa 0fbc 7d19 e63d d7ac ccbe
00000060: adac 65be 2f8f 2fbe f5e1 52be 1637 48be
00000070: 4235 b6bc b668 66be 3737 033e 39a0 debd
00000080: d8c4 a6be 3447 01bd 2705 a83e 0db0 f13e
00000090: 700c ffbd c9b0 13be d796 70bb 2b0e 7ebd
000000a0: de4a 9f3d b28b 06be 8da8 acbd 6fa5 123e
000000b0: 9e2a 34bd 30bb 063d 03c3 d73d 5064 3abe
000000c0: f6b4 be3d 9d68 633d c068 f13c 098b d93d
000000d0: 422b 803d 3d6e 443e 183d 893e 3ebc cd3e
000000e0: 6632 8dbe 91d7 bdbc 8431 82be e762 e1be
000000f0: d873 d73d ce42 a4bd 69cb 843d aa42 fe3d
00000100: eb23 debe 3931 bd3e 11ea 1bbe e8aa 953d
00000110: f4a2 9e3d 4740 323e a6f6 87be c8ed 7b3e
00000120: 748b 1abe c949 9bbe ede7 1e3e a698 613d
00000130: 1b56 45be 7205 c6bc a711 843d 99ed c83c
00000140: 7875 823d 3aeb 383e 8672 c93d 0d4d 7dbe
00000150: 9755 bd3d 3e54 3e3c 8a94 26bb 7546 39be
00000160: c701 2d3e 2a05 e8bd 7899 e1be 86e9 6bbe
00000170: e856 7fbe 016a 5fbe 93f1 823e 768f 73be
00000180: a541 b7be 9367 37be 5dad 303e 2a36 1cbe
00000190: 9a32 96be 3203 0c3e 3368 1c3e 8817 213e
000001a0: d755 a5be a95f ad3c 6da2 38be 2324 80bd
000001b0: 7d0c abbe 3a77 2c3e 9d3a 323c 9ae4 87bc
000001c0: 1f0b 4f3c ccb9 39bd 94a2 59bd 31c0 26be
000001d0: 703d 7f3e 1b34 e73d cec6 66be 1f66 abbe
000001e0: 38f1 ef3c 8936 97bc a687 a8be 0511 23be
000001f0: 3dd0 303d 850c eebc 10ee 88bc ca10 fd3d
00000200: 3af3 a33e ecfa b3bd 1d13 933e 54d6 46be
00000210: 6dfc b63d 1822 333e 430f ab3b b005 023e
00000220: 5c3f 2b3e 279f 583e 1d6f 393c fe6d 023e
00000230: bc8a 45be f5a2 64bd eb9e 0fbe aa76 af3d
00000240: f01d 2b3e 968f 0a3e 68e5 91be 0e67 04bd
00000250: b9a3 9ebd 7057 103e 6de6 ae3e c49e 473b
00000260: 6ad5 3cbe a359 343e a3b7 933e 6731 573e
00000270: 3bd7 35be 9b54 26be d937 93be 9fa8 4bbd
00000280: a1dd a83e 51a1 3e3d 16b0 173d 3d1b 933e
00000290: f0fa b8bd 4844 04be c624 ffbb 3d4e 67bd
000002a0: 1028 283e c92f c13d c9d9 b6bd 87e6 f5bd
000002b0: 1e04 98bd a829 523d a7d5 073c 87e5 1c3d
000002c0: 4d81 e03c cd8c 073e e031 923d 45cd a0bd
000002d0: 4458 86bb f288 0dbf c243 3b3e 9960 7a3c
000002e0: 9de7 893c 2f37 cebd fb77 edbe 402c 633e
000002f0: 2d1b 01be ae15 c7bd 96f7 d73d bea0 f5bb
00000300: 8fc6 943e 3845 3fbe c48c 10be 358f 423d
00000310: aa4c 253e 1b0c 6e3e d57d 48bd 4ab8 cb3c
00000320: 6735 2b3e 1132 a0bd 6bd4 21bd 6351 8d3e
00000330: 73d2 713c 102b 08bd 7ae4 b9bd c4d4 cfbe
00000340: 5ae1 bebb cdbd 053e a39e 92bd c117 9dbc
00000350: dbcc 953d 5469 6bbc 8d32 80be 5b09 7f3e
00000360: ed2e 7a3e 2f06 973e 4640 3b3e 8a7b 313e
00000370: 91c7 f23d 4fde e33d 1f80 10bd 1552 a63d
00000380: 78f6 e5be 08b1 5cbe 75a9 f2bd 99b8 c8be
00000390: 298c 023e 99b2 5b3d 330d 09bc a9c9 6cbd
000003a0: 7472 34bd 4eae ccbd 6a05 e13d f7e6 b23e
000003b0: 5fe9 42bd 3d3a 2fbe 4c9e 1bbe 868c 143d
000003c0: 2acc a63d 7c63 c1bd 6aeb 253e 6932 043e
000003d0: 4710 bcba eaa4 6c3d a5d5 ad3d f17e f1be
000003e0: 7408 eebd 9d99 42be b049 ec3d 24fb ba3e
000003f0: afd0 613e 89d8 ea3d f6aa b2bd 60e5 eebd
-0.43396497 0.070197105 -0.3596529 0.5652462 0.04064496 -0.09680118 -0.2105142 -0.045371134
-0.19172923 -0.040654294 0.042570297 0.17864238 0.096031256 -0.07235487 0.08094858 -0.017332308
-0.27856565 -0.09633765 -0.025591886 -0.07373504 -0.03495782 -0.008787695 0.1123533 -0.39975616
-0.22429152 -0.17144464 -0.20594008 -0.19552264 -0.022242192 -0.22500882 0.12814032 -0.10870404
-0.32572055 -0.031562045 0.3281643 0.4720463 -0.12453544 -0.14422907 -0.0036711001 -0.06202523
0.07777952 -0.13139227 -0.08430586 0.1432092 -0.043985955 0.03289336 0.105352424 -0.18202329
0.09311859 0.05551969 0.029468894 0.10622222 0.06258251 0.19182678 0.26804423 0.4018268
-0.27577513 -0.02317408 -0.25428402 -0.4402077 0.10520142 -0.080205545 0.0648411 0.12415059
-0.43386778 0.36951616 -0.15226008 0.073079884 0.077459246 0.17407332 -0.26555365 0.24602425
-0.1509226 -0.3032973 0.1551816 0.055077218 -0.19271128 -0.024172518 0.064486794 0.024527358
0.06370062 0.18058482 0.09836297 -0.24736424 0.092448406 0.011616765 -0.0025418126 -0.18093283
0.16895209 -0.1132911 -0.440624 -0.23038301 -0.24935496 -0.21817781 0.25574932 -0.23785195
-0.3579227 -0.17910604 0.17253633 -0.15255037 -0.2933548 0.13673094 0.15274124 0.15731633
-0.32292053 0.021163778 -0.1803071 -0.062568925 -0.33407965 0.16842356 0.010878232 -0.016588498
0.012636929 -0.045343205 -0.053133562 -0.16284253 0.2492578 0.11289235 -0.22536775 -0.3347635
0.029289827 -0.018458622 -0.32915992 -0.15924461 0.04316734 -0.029058704 -0.01671508 0.12356718
0.32021505 -0.08788094 0.2872552 -0.19417697 0.08934865 0.17493474 0.005220325 0.12697482
0.16723388 0.21154462 0.011317995 0.12737271 -0.19291204 -0.05581947 -0.14025466 0.08567555
0.16710639 0.13531336 -0.28495336 -0.032324843 -0.07746071 0.14095855 0.34160176 0.0030459622
-0.18440786 0.17612319 0.2885104 0.21014939 -0.17757885 -0.16243212 -0.28753546 -0.049721356
0.3298159 0.046540562 0.037033163 0.2873172 -0.090322375 -0.12916672 -0.007786366 -0.0564711
0.16421533 0.094329424 -0.08928258 -0.1200686 -0.0742266 0.051309258 0.008290685 0.03830483
0.027405405 0.13237305 0.07138419 -0.07851652 -0.0040998776 -0.55287087 0.18287566 0.01528182
0.016834075 -0.10069119 -0.463806 0.22184849 -0.12608023 -0.09720932 0.1054527 -0.0074959686
0.29057738 -0.18678749 -0.14116198 0.047499854 0.16142526 0.23246805 -0.048948128 0.02486815
0.1671959 -0.078220494 -0.03950922 0.27601156 0.014759648 -0.033244193 -0.090767816 -0.40592015
-0.005825204 0.13060685 -0.07159164 -0.019176366 0.07314464 -0.014368374 -0.25038567 0.24905913
0.24431963 0.29496905 0.18286237 0.17332283 0.118544705 0.111263864 -0.035278436 0.08121125
-0.44914603 -0.21551907 -0.118487276 -0.39203337 0.1274878 0.05363712 -0.008364963 -0.057809506
-0.044054464 -0.099941835 0.10987361 0.34941837 -0.04758584 -0.1711206 -0.15197104 0.036266826
0.0814441 -0.09442803 0.16203085 0.12909855 -0.0014348113 0.05777446 0.08488015 -0.4716716
-0.11622706 -0.19003911 0.11537492 0.3651973 0.22052263 0.11467082 -0.087240145 -0.116648436

fc2.bias f4 [64]
00000000: 43ac 063e 3242 ce3d cd97 8bbd dbf7 0fbe
00000010: 3c19 79be 1eab f53c 96b0 14be 09d1 45bd
00000020: c73f 493e 202f e8bd 554d 86bd 8b4b 2fbe
00000030: 5c1a 97bd b668 253e e580 5cbd 045a 4c3c
00000040: 762f 153d f04b 883e 3822 37bd ab1e d23e
00000050: db33 debd 342a a4bd 95f9 853e 2362 2cbe
00000060: 99e5 703e 516f e1bc 5cd8 ba3e ccc0 ec3e
00000070: 05f3 873d 9147 083e 30bb 093e f478 4e3e
00000080: 7aee 60be b9e0 523d 3491 5dbe 552c 773e
00000090: af0e 0b3d f52a 133e ae12 f2bd c2b5 69be
000000a0: c819 913c 6702 443e 8b17 c0bd 2701 18bc
000000b0: cfed cc3e 726b 9a3e 6ada 6abd 0713 0f3e
000000c0: 1073 f43d 6e02 bd3e 9fb9 3e3d 39ea bcbd
000000d0: 7791 12bd d716 bb3e b61e 1c3e afd9 21bd
000000e0: f1d8 293e 6729 7abd 2f7c 983e e0aa 9c3e
000000f0: 84e7 03be 5377 883d a8e5 9b3e 2925 6e3d
0.1315165 0.100712195 -0.06816063 -0.14059393 -0.24326032 0.029988822 -0.14520487 -0.048295055
0.19653235 -0.113371134 -0.06557719 -0.17118661 -0.073780745 0.16153225 -0.05383386 0.012472633
0.036422215 0.26620436 -0.044710368 0.41039023 -0.108497344 -0.08015862 0.26166978 -0.16834311
0.23525085 -0.0275189 0.36493194 0.46240842 0.06638149 0.1330855 0.13450313 0.20163327
-0.21965972 0.051483843 -0.21637422 0.24138005 0.03394955 0.14371856 -0.11819969 -0.22823241
0.017712489 0.19141541 -0.093794905 -0.0092776185 0.40025184 0.301601 -0.057337202 0.13972102
0.11936009 0.36915916 0.04656374 -0.09224362 -0.035783257 0.36540863 0.1524609 -0.03951424
0.16586663 -0.06107464 0.29782245 0.30599117 -0.12881285 0.06663384 0.3044865 0.058140907

fc3.weight f4 [4, 64]
00000000: 7cf9 09bd 28e6 3d3d 6632 28be e2dc c03b
00000010: c07c 26be 6bf9 083c 626e 9dbe 3317 89bb
00000020: dac8 253e 1a53 a2be f9c4 6bbe ab4f 32be
00000030: bb67 a93e c753 913d 67ab 063e c79e 43bd
00000040: 34cc 17be 3169 373d 230a eabd f2b3 343e
00000050: 8892 b9be b327 46be cdb4 363e 2297 27be
00000060: c895 973d 93f0 ef3e 5bac 443e 5f20 733e
00000070: 7b75 b53d 91f5 8e3e f47d 9c3d 20d6 143e
00000080: d2b1 a5bd 6ff1 88be 9753 54be 397e ca3c
00000090: e8cb 2f3e 3c39 7c3e 8709 d4bd 43f6 1abe
000000a0: 7f3d 8d3e 124e 843e 65e3 313e 11fb 113f
000000b0: 63e0 003e 70a6 503e d3c6 ec3d 5db3 193d
000000c0: 3fd0 bc3e 7d9e 9d3e 27ed cbbe fa99 313e
000000d0: d8dd 7e3d 190f 633e 0276 4c3e 7b5e 543e
000000e0: 8c5a d03c 7494 8a3e b719 383e a1d6 e13d
000000f0: b54e 0dbe 10b5 163e 045d 0f3e 020d 3f3e
00000100: 4273 303e 6595 483e 1e9d 22be 058a b6bd
00000110: a26e 973d acef c03d b5b1 2bbe 5cd9 243e
00000120: 28c0 fe3d dd06 8fbe 2c76 203c 1f8c 40be
00000130: ccbd f43e 70a2 4e3e 0212 2e3e ed33 5a3d
00000140: 52ff 3b3d 4de2 b53d 9833 463d 21f2 663e
00000150: 35e7 a4be bd70 04be c9a9 163e 7fcb eb3d
00000160: 70bc 9a3d 28d7 b03e e57c 8d3d 7c91 483e
00000170: e3b4 053d c332 493e 5791 ef3d 5030 133e
00000180: bf6e 2cbd 2865 9cbe 5861 03be 18f9 3a3e
00000190: 7f47 413e 6129 9f3e 6331 b2bd d418 43be
000001a0: 71a1 4a3e a229 023e 8a19 6f3d 50f2 133f
000001b0: f1ea 743e 71be 4d3e 77a6 8c3d fd92 a6bd
000001c0: 617c 013f 4c81 a03e d019 87bd 46cc 6b3e
000001d0: 4bb0 02bd 98eb 553e c8ce e13d 62f6 1a3e
000001e0: 6adc 87bb 11f5 b73e 1ef1 083d 2313 203d
000001f0: b8b5 57be eddb 403e ed1a 1b3e 5afd 0a3e
00000200: 4205 31be f105 8e3c fa0d b2be 0352 8bbe
00000210: 1a6b a8be 66a7 0d3e 492c 53bd f00a 0e3e
00000220: eac5 7e3d 9258 0dbe ec95 14be df12 aa3c
00000230: dc56 a43e 1a8e 823e 1459 963e 0ce4 383d
00000240: a81a 7ebe cf20 f8bc 31eb bd3d 8547 8b3d
00000250: 1119 f0bd 1b3b 3dbe 2147 083e f59b ce3d
00000260: a8ce 683e 963f 903e 10fa 313e c49f b43d
00000270: d3e2 563e a0f6 863d 6f52 a0bb 3dca 02bd
00000280: 383a 7ebe 8752 043d f5bb 4fbe f2d1 6f3e
00000290: b46d 803e c2b0 6c3e dd42 39be 23c5 93be
000002a0: 6516 293d 9a8e 0b3e ceaf 9bbe 0fde 953e
000002b0: 3682 333e d1ac 573e 78f6 4f3e 80c8 a7be
000002c0: 87e8 873e cfb7 b03e 856e ea3c 552e 963e
000002d0: 6521 ba3d 2c14 393e 74d5 91bb 0198 b03e
000002e0: 6d43 e63d 8bb7 c83e fef8 193e 0fff f03d
000002f0: d485 d5be 9c6c 423e 06cb 533e 4212 c83e
00000300: 262d 083f 50f4 313e 64f7 55bd 009c 29be
00000310: 8a8c 9abd cf14 8b3d 336d c53d 9e10 b13e
00000320: 0a3c e53d 76c5 4ebe e646 8bbb 267a 17bf
00000330: 5e78 a33e 6150 273e 10c3 49bd 0f04 aabe
00000340: 1438 06be 1b75 983e 0eb8 7bbe b6e3 fe3d
00000350: 677c 22be b932 0b3e 1b84 0dbe e4e1 b5bd
00000360: 0477 373d 4d69 c63e 27df 343e b4fe 503e
00000370: d95d fb3d 9929 9c3e 34be 583e 2765 833d
00000380: 1c71 19be 9af9 3dbc 5a39 8fbe 84ee a73d
00000390: 36f3 643e 4927 8f3e 308f 33be 23f7 6ebe
000003a0: 28c7 263e b43d 35be 338f fc3c 8836 283f
000003b0: eb5c 583e 94b9 ba3e 05c6 2c3e 195b fa3b
000003c0: 2a4b 903e ad89 0f3e 9129 59bc bffc 253e
000003d0: 589a 02be a0a1 573e 74fd 543d 56e1 f83d
000003e0: eeb1 523e d26e bb3d 0478 643e e729 113e
000003f0: 8803 0fbe 2fa0 4f3e d1e8 be3d d1e8 0b3e
-0.033685192 0.046362072 -0.16425475 0.0058857063 -0.16258526 0.008360247 -0.30748278 -0.0041836738
0.161899 -0.31704026 -0.23024358 -0.17413203 0.33086953 0.070960574 0.13151322 -0.047758844
-0.14823991 0.044778053 -0.11427715 0.17646769 -0.36244607 -0.19351082 0.17842408 -0.16366246
0.074016154 0.4686323 0.19206373 0.23742817 0.08860298 0.27921727 0.07641211 0.14534807
-0.08090557 -0.267467 -0.20735012 0.02471839 0.17167628 0.24631208 -0.1035338 -0.15133004
0.2758598 0.25840813 0.173719 0.5702372 0.12585597 0.20375991 0.1156136 0.03752457
0.3687763 0.3078498 -0.3982937 0.17343894 0.062223285 0.22173728 0.19966891 0.20739166
0.025433801 0.27066386 0.1797856 0.11027265 -0.13799556 0.14717507 0.14000326 0.18657306
0.17231467 0.1958824 -0.15880248 -0.08913044 0.073941484 0.09420714 -0.16767009 0.16098541
0.12438995 -0.27934924 0.009793799 -0.18803452 0.47801054 0.20179152 0.16999057 0.053272177
0.04589779 0.08881054 0.048389047 0.22553302 -0.32207647 -0.12933631 0.14713205 0.11513423
0.07555473 0.3453915 0.06908587 0.19586748 0.03264321 0.1964827 0.11697643 0.14373899
-0.042097803 -0.30545926 -0.12830102 0.18259084 0.1887493 0.31086257 -0.08700826 -0.1905244
0.19788148 0.12711194 0.058373965 0.57791615 0.23917748 0.20092179 0.06867688 -0.081335045
0.5058041 0.31348646 -0.0659672 0.23027143 -0.031906407 0.20890653 0.110257685 0.1513305
-0.0041461485 0.35929158 0.033433072 0.03908075 -0.21065414 0.18833895 0.1514699 0.13573208
-0.17287162 0.017336817 -0.34776288 -0.27211007 -0.32894212 0.13833389 -0.051555905 0.1387136
0.062200464 -0.13803318 -0.14510316 0.020760952 0.32097518 0.2549904 0.29364836 0.045139357
-0.24814856 -0.030289082 0.09273375 0.06800751 -0.11723531 -0.18479578 0.13308384 0.1008834
0.22735083 0.28173512 0.17380548 0.088195354 0.20984964 0.06590009 -0.0048926394 -0.03193115
-0.24826896 0.032305267 -0.20286544 0.23419932 0.25083697 0.23114303 -0.18091913 -0.2886134
0.041281123 0.13628617 -0.30407566 0.2927098 0.1753014 0.21062018 0.20308864 -0.32770157
0.26544592 0.34515235 0.028617153 0.29332224 0.09088401 0.18074101 -0.0044504944 0.3449097
0.11243329 0.39202532 0.15036389 0.117673986 -0.41703665 0.18986744 0.20682916 0.3907643
0.5319389 0.17378354 -0.052237883 -0.16563416 -0.07546337 0.06791078 0.09639969 0.3458299
0.11193092 -0.20192513 -0.004250395 -0.5917076 0.3192777 0.16339256 -0.04925829 -0.3320622
-0.1310733 0.29776844 -0.2458193 0.12445776 -0.15867768 0.13593568 -0.13819925 -0.08880976
0.044791237 0.38752213 0.17663251 0.20409662 0.122737594 0.30500486 0.21166307 0.06415778
-0.14984554 -0.011595154 -0.27973443 0.0819979 0.22358403 0.2795966 -0.1753509 -0.23336463
0.1628691 -0.17699319 0.030830001 0.6570821 0.21129195 0.3646971 0.16872413 0.007640254
0.28182346 0.14017363 -0.013254539 0.16209696 -0.1275419 0.21057749 0.051999524 0.121523544
0.20575687 0.09151997 0.22311407 0.1417614 -0.13966191 0.20275949 0.0932175 0.13663031

fc3.bias f4 [4]
00000000: ee9f 303e 663e c63d c49f 683e 1e76 193d
0.17248508 0.0967987 0.22717196 0.03746616
