best_model.pth (torch, 16683 bytes, 6 tensors)

fc1.weight f4 [32, 37]
0	0x3d090f28	0.03346172
1	0x3d5ca0f7	0.053864446
2	0x3c924c6e	0.01785871
3	0x3b3d0f72	0.0028848317
4	0xbcc1c7d8	-0.023654863
5	0x3d5dbaad	0.054133106
6	0x3d02158e	0.031758837
7	0x3d99bd4d	0.075068094
8	0x3e038fe3	0.12847857
9	0x3db58427	0.08863097
10	0x3e683f88	0.22680485
11	0xbf2bf51f	-0.671709
12	0xbed94204	-0.42433178
13	0xbef28f6f	-0.47375056
14	0xbfeadfa0	-1.8349495
15	0x3d500c17	0.05079278
16	0x3dbc1e35	0.09185449
17	0x3d91359c	0.07090303
18	0x3d9b563d	0.07584808
19	0xbbc1978c	-0.0059079584
20	0x3d8ddebb	0.06927248
21	0x3e0829b0	0.13297153
22	0x3dda368f	0.106549375
23	0x3e270e69	0.16314091
24	0x3da9a69e	0.08283733
25	0x3cd7f600	0.02636242
26	0x3d5cf346	0.05394294
27	0x3d3a5883	0.045494568
28	0x3cfdc5cd	0.030978108
29	0xbcc6b787	-0.024257435
30	0x3ab9d1d9	0.0014176919
31	0x3ce7e7a1	0.028308691
32	0x3ca234b9	0.01980053
33	0x3d04953f	0.032368895
34	0xbc05d359	-0.008168065
35	0xbc49f1bc	-0.0123257
36	0xbb66f31a	-0.0035240115
37	0x3dc6c6d9	0.09705896
38	0x3e3a6b21	0.18204929
39	0x3da25c10	0.07927716
40	0x3de87937	0.11351245
41	0xbe1c09e8	-0.15238154
42	0xbcb4ec94	-0.022085465
43	0xbdf6860c	-0.12037286
44	0xbd625f0f	-0.055266436
45	0xbd6e4c66	-0.058178328
46	0xbe20f88f	-0.15719818
47	0x3c321464	0.010869119
48	0x3b104b5b	0.0022017572
49	0x3d13642a	0.035984196
50	0x3dd9ba64	0.10631254
51	0x3db81180	0.08987713
52	0xbca98e26	-0.020697664
53	0x3e40f43b	0.18843167
54	0x3ddb766c	0.107159466
55	0x3ca3655a	0.01994579
56	0xbe75b15e	-0.23993441
57	0xbde82894	-0.11335865
58	0xbd88b502	-0.066751495
59	0x3cb6c1f4	0.022309281
60	0xbc883dd7	-0.01663105
61	0x3bffa2c6	0.0078013865
62	0xbf04b8b9	-0.51844364
63	0x3e7568fc	0.2396583
64	0x3e35f41a	0.17768899
65	0xbe13b8de	-0.1442599
66	0xbf56988b	-0.8382651
67	0x3dc222c0	0.09479284
68	0x3e30dbd9	0.17271365
69	0x3e1333f7	0.14375292
70	0x3e4f359c	0.20235294
71	0xbce34adb	-0.027745655
72	0xbbd0108c	-0.006349629
73	0x3bea82e0	0.007156715
74	0xbdb7e74a	-0.08979662
75	0x3d7232b0	0.05913037
76	0x3e5acfd1	0.21368338
77	0xbe69c143	-0.2282763
78	0xbdb9b6da	-0.09068079
79	0xbec7d21d	-0.3902749
80	0xbe88179c	-0.26580513
81	0x3e817a55	0.25288644
82	0xbe359e2b	-0.17736118
83	0xbfa91ece	-1.3212526
84	0xbed07913	-0.40717372
85	0xbdbae0a7	-0.0912488
86	0x3e008c90	0.1255362
87	0xbe0bafb3	-0.13641243
88	0xbe3de521	-0.18544437
89	0xbd5b709f	-0.0535742
90	0xbe86639e	-0.26247877
91	0x3ea1c5b4	0.31596148
92	0xbe332540	-0.17494678
93	0xbd78f26e	-0.060778074
94	0x3e23a324	0.15980202
95	0xbe9bad0a	-0.30405456
96	0xbbaefe2a	-0.0053403573
97	0xbf31bd97	-0.69429916
98	0xbdd1ceda	-0.10244532
99	0xbe891b77	-0.26778767
100	0xbeaa362b	-0.33244452
101	0x3e83da61	0.25752547
102	0xbd7afabf	-0.061274286
103	0xbf735264	-0.95047593
104	0xbe50f515	-0.20405991
105	0xbe58dcc3	-0.21177964
106	0xbd5890bf	-0.052872416
107	0xbf1e24f9	-0.61775166
108	0xbedeebe7	-0.43539354
109	0x3d93aaaa	0.07210286
110	0x3bf2e051	0.0074119945
111	0x3ec9ebb5	0.39437643
112	0xbf172d70	-0.5905371
113	0xbea97365	-0.33095852
114	0xbe9edba7	-0.31026956
115	0xbfdc044c	-1.7188811
116	0xbc623e2c	-0.013808768
117	0xbcb22670	-0.021746844
118	0xbc9f5900	-0.019451618
119	0xbd111dc9	-0.035428796
120	0xbd6c4fe6	-0.057693385
121	0xbd8553cc	-0.065101236
122	0xbd1e0b2a	-0.038584866
123	0xbce84841	-0.028354766
124	0xbc9830cb	-0.018577954
125	0x3cba4290	0.022736818
126	0xbdcfbad2	-0.10143055
127	0xbcb48e6c	-0.022040568
128	0xbd8532d5	-0.06503836
129	0xbdd141d8	-0.10217637
130	0xbd113af8	-0.035456628
131	0x3b02e130	0.0019970648
132	0xbaa836c4	-0.0012833704
133	0xbc0c306f	-0.008556469
134	0x3c39e47a	0.011345977
135	0xbca82844	-0.020527013
136	0xbd113945	-0.035455007
137	0x3cfe2204	0.03102208
138	0x3dc2f467	0.09519272
139	0x3e3d1389	0.18464483
140	0x3e6b7dcd	0.22997208
141	0xbca94234	-0.02066145
142	0x3cb8dbea	0.0225658
143	0x3b9c5f06	0.00477207
144	0xbc83983e	-0.016063806
145	0xbd5915ff	-0.052999493
146	0xbbc02978	-0.0058643185
147	0x3b699914	0.003564422
148	0xbe51a78b	-0.20474069
149	0xbe21ff3f	-0.15820025
150	0xbe458ba5	-0.19291551
151	0xbe46dbe7	-0.19419824
152	0xbd1b2194	-0.03787382
153	0x3de64450	0.11243498
154	0xbe59c370	-0.2126596
155	0xbe9d9bb4	-0.30782855
156	0xbe4f22ef	-0.2022817
157	0xbfe584df	-1.7931174
158	0xbd589e5a	-0.05288539
159	0x3d2cd448	0.042194635
160	0xbd5315bd	-0.051534403
161	0xbe0a0c72	-0.1348131
162	0xbdbab80f	-0.09117138
163	0xbdde5766	-0.10856514
164	0xbde5051e	-0.11182617
165	0xbcb9c076	-0.02267478
166	0xbce4e5ae	-0.027941551
167	0x3d7fb553	0.062428784
168	0xbe141891	-0.14462496
169	0x3d0c332d	0.034228493
170	0x3d98f31a	0.07468243
171	0xbc3602b1	-0.01110904
172	0xbe4b827e	-0.19873998
173	0xbc5055c6	-0.0127157625
174	0xbe86e52b	-0.26346716
175	0x3e803444	0.25039876
176	0x3ce70408	0.028200164
177	0x3dec65f6	0.11542885
178	0x3e0f3bc9	0.1398765
179	0xbf245d9f	-0.64205354
180	0x3e39303f	0.1808481
181	0xbef708b7	-0.48248836
182	0xbfb358bb	-1.4011453
183	0xbd59a770	-0.053138196
184	0x3c5b3a00	0.0133805275
185	0xbd7f294d	-0.062295247
186	0xbbebe9fd	-0.0071995244
187	0x3c44dff1	0.012016282
188	0xbe3b673f	-0.18301104
189	0x3c3197f8	0.010839455
190	0xbd9088a5	-0.07057313
191	0x3d5f32c7	0.054491784
192	0x3d1808ee	0.03711789
193	0x3e174d56	0.14775595
194	0x3d2b72f9	0.041857693
195	0x3b36c08b	0.002788576
196	0xbe31bb76	-0.17356667
197	0xbdd81e81	-0.10552693
198	0xbd8ad1d6	-0.06778304
199	0xbc2fc9cc	-0.0107292645
200	0xbd0c5b9e	-0.03426706
201	0x3cfa84a4	0.030580826
202	0xbc7965f7	-0.015222064
203	0xbd180259	-0.037111614
204	0xbd95f94b	-0.073229395
205	0x3ea8c5e5	0.32963482
206	0xbeae52c3	-0.34047517
207	0x3b41312f	0.0029478779
208	0xbcbdb5bf	-0.023157952
209	0xbf510bc1	-0.8165856
210	0xbe0a62d8	-0.13514268
211	0xbd9925f1	-0.0747794
212	0x3d59e7d4	0.053199604
213	0x3de463f2	0.111518756
214	0x3cde48c6	0.02713431
215	0x3e371ab1	0.17881276
216	0xbdd20b6f	-0.10256087
217	0xbea2ed80	-0.31821823
218	0xbe74e292	-0.23914555
219	0xbf832381	-1.024521
220	0x3deaf969	0.114733525
221	0x3cb773f3	0.022394156
222	0x3cb07c84	0.021543749
223	0x3cad0993	0.02112273
224	0x3cc49872	0.023998473
225	0x3d8e495f	0.06947588
226	0x3d27f007	0.041000392
227	0xbe31b68b	-0.17354791
228	0xbde729e4	-0.11287287
229	0x3d4ee013	0.050506663
230	0x3e8ab085	0.270878
231	0x3ef624d1	0.48074964
232	0x3cfe9359	0.03107612
233	0x3e2878ab	0.16452281
234	0x3d9a1fda	0.075256065
235	0x3e0a132e	0.13483879
236	0x3e0f754f	0.14009593
237	0xbd99c06e	-0.07507406
238	0xbdb9c5fb	-0.09070965
239	0x3d7598e6	0.05996027
240	0x3db23ad7	0.08702629
241	0x3e45d861	0.19320823
242	0xbd8a0108	-0.06738478
243	0xbdb34c0d	-0.0875474
244	0x3de982f5	0.11401931
245	0x3dfbba16	0.122913525
246	0x3ed7ba06	0.42134112
247	0xbd049cc3	-0.032376062
248	0x3d2be7f8	0.04196927
249	0xbd0588d4	-0.032601193
250	0xbd559549	-0.052144323
251	0xbdf95ccb	-0.12175902
252	0xbd142985	-0.03617241
253	0x3da98d1e	0.08278869
254	0xbcf83676	-0.030299406
255	0x3da5bc3b	0.08092543

fc1.bias f4 [32]
0	0xbd9c0e31	-0.07619894
1	0xbdc0cd53	-0.094141625
2	0x3e3b7744	0.18307215
3	0x3e2ffb75	0.17185767
4	0x3e771e9c	0.2413277
5	0xbc6d5c00	-0.014487267
6	0xbd769822	-0.06020368
7	0x3d6711cb	0.056413453
8	0x3e5da138	0.21643531
9	0x3e37fcce	0.17967531
10	0x3dbb30de	0.0914018
11	0xb96eb6bd	-0.00022765524
12	0x3dc16478	0.09442991
13	0xbe1011ea	-0.14069334
14	0x3df7ce88	0.120999396
15	0xbd8da18c	-0.06915578
16	0xbd02bcd1	-0.03191835
17	0x3daa272b	0.08308252
18	0x3daf50c0	0.08560324
19	0xbe17c53f	-0.14821337
20	0xbe19f357	-0.15034233
21	0xbc61b437	-0.013775877
22	0x3aec4144	0.0018024822
23	0x3e3bb90e	0.18332312
24	0xbd3c4217	-0.045961466
25	0xbd08ec60	-0.03342855
26	0x3cb07adb	0.021542957
27	0x3dc6d599	0.09708709
28	0x3dc3afe2	0.09555031
29	0xbd4ef6b5	-0.050528247
30	0xbe371675	-0.1787966
31	0xbe3092a1	-0.17243434

fc2.weight f4 [64, 32]
0	0xbf0ca13b	-0.5493352
1	0x3d8f60db	0.070008956
2	0xbe948492	-0.29007393
3	0x3f1358a9	0.5755716
4	0x3d361909	0.04445747
5	0xbcd38942	-0.025822286
6	0xbe21a151	-0.15784194
7	0xbc730d8b	-0.014834772
8	0xbdec25a1	-0.11530615
9	0xbcdddd77	-0.027083142
10	0xbceccfb6	-0.028907638
11	0x3dd72698	0.10505408
12	0x3d90637b	0.070502244
13	0xbdd22bdd	-0.102622725
14	0x3dad0362	0.08447911
15	0x3da3540f	0.07975017
16	0xbe7fec00	-0.2499237
17	0xbd2a0dbd	-0.041517008
18	0xbd12b0f4	-0.035813287
19	0xbce4a58d	-0.027910972
20	0xbd9ba79f	-0.076003306
21	0xbdcaba6b	-0.09898838
22	0x3e2685f4	0.16262037
23	0xbee1cab0	-0.4409995
24	0xbe8b4997	-0.27204582
25	0xbdb100fe	-0.08642767
26	0xbe107c9c	-0.14110035
27	0xbe9e18bb	-0.30878243
28	0xbd9342a7	-0.07190447
29	0xbea60077	-0.3242223
30	0x3e18fc9d	0.14940114
31	0xbdf23314	-0.11826149
32	0xbe80ee8b	-0.25181994
33	0x3ba13f67	0.004920888
34	0x3ea657a5	0.32488742
35	0x3f06e37f	0.5269088
36	0xbe025bad	-0.12730284
37	0xbc4be700	-0.012445211
38	0xbce3b3a9	-0.02779563
39	0xbc8d7ae5	-0.017270515
40	0x3dae512f	0.08511578
41	0xbe11ee47	-0.14251052
42	0xbd3b47f9	-0.045722935
43	0x3df49759	0.1194293
44	0xbdb8a348	-0.090155184
45	0xbc5d869a	-0.013520861
46	0x3ddcb0d6	0.10775916
47	0xbe46435a	-0.1936163
48	0x3dda402d	0.10656772
49	0x3d3a3c0f	0.045467433
50	0x3d1cf272	0.03831715
51	0x3dfe3349	0.124121256
52	0x3d825255	0.0636336
53	0x3e27bc3e	0.16380402
54	0x3e4beee5	0.1991535
55	0x3ed65b58	0.41866565
56	0xbe8df072	-0.27722508
57	0xbe18676a	-0.148832
58	0xbe9d7130	-0.30750418
59	0xbeeac032	-0.45849758
60	0x3dc78719	0.09742565
61	0xbdcf7dcb	-0.10131415
62	0x3d0070c9	0.03135756
63	0x3dda3de8	0.10656339
64	0xbea43ba1	-0.32076743
65	0x3ebae3c6	0.36501902
66	0xbdf50cde	-0.11965345
67	0x3d39b1c4	0.045335546
68	0x3e0f02ad	0.13965864
69	0x3e222f15	0.15838273
70	0xbe8d2463	-0.27566823
71	0x3e2e48ba	0.1701993
72	0xbda69825	-0.08134488
73	0xbe9191d7	-0.2843158
74	0x3e66436a	0.22486654
75	0x3d24f0b9	0.040268634
76	0xbe640605	-0.22267921
77	0xbc87e71b	-0.016589692
78	0xbd27069b	-0.040777784
79	0x3d75578d	0.059897948
80	0x3dbbbbfb	0.09166714
81	0x3e5dd0fc	0.21661752
82	0x3e2eb6a5	0.17061861
83	0xbe91595a	-0.28388482
84	0x3df7d425	0.1210101
85	0x3d99e2df	0.07513975
86	0x3d1b0880	0.037849903
87	0xbe07082d	-0.13186713
88	0x3e5d9d06	0.21641931
89	0x3d2fc612	0.042913504
90	0xbf123aab	-0.5712077
91	0xbe218090	-0.15771699
92	0xbe6fe814	-0.23428375
93	0xbe8d80ad	-0.27637234
94	0x3e68e9e9	0.2274548
95	0xbd6a4923	-0.057198655
96	0xbec94010	-0.39306688
97	0xbd96c33c	-0.07361457
98	0x3e367299	0.17817153
99	0xbe7d42b4	-0.24732476
100	0xbe77a53d	-0.24184127
101	0x3d2bd805	0.04195406
102	0x3e297524	0.16548592
103	0x3da09925	0.0784171
104	0xbea13494	-0.31485426
105	0x3d1f0b8f	0.038829383
106	0xbdc63fa8	-0.0968011
107	0xbd744368	-0.059634596
108	0xbec17688	-0.37785745
109	0x3e29a434	0.16566545
110	0xbba62228	-0.0050699897
111	0xbcb75438	-0.022379026
112	0x3ce215de	0.027598318
113	0x3d050e5f	0.03248441
114	0xbd845d02	-0.06463052
115	0xbde58eef	-0.11208903
116	0x3e78e744	0.24306971
117	0xbcdf258d	-0.027239585
118	0xbe0530f8	-0.13006961
119	0xbe9a8f92	-0.3018766
120	0xbb2e9df4	-0.002664444
121	0xbd9c4c2b	-0.076317154
122	0xbebdba97	-0.3705642
123	0xbe3d80db	-0.18506186
124	0x3d163b28	0.03667751
125	0xbc6b00e4	-0.014343474
126	0x3d10bd0d	0.035336543
127	0x3dfee948	0.124468386
128	0x3eb52c1e	0.3538522
129	0x3c4c5d4f	0.012473418
130	0x3e955a75	0.29170576
131	0xbe6f9c32	-0.23399428
132	0x3cee984d	0.029125357
133	0x3e0aa1ab	0.13538234
134	0x3d011157	0.031510677
135	0x3df8cf62	0.1214893
136	0x3e285b7a	0.16441146
137	0x3e538f7f	0.20660208
138	0x3d126c4d	0.035747815
139	0x3df2ccde	0.118554816
140	0xbe050e25	-0.12993677
141	0xbd80d5f6	-0.0629081
142	0xbe07fc7e	-0.13279912
143	0x3da19891	0.07890428
144	0x3e212649	0.15737261
145	0x3e08cd19	0.13359489
146	0xbe713603	-0.2355576
147	0xbddb9bd1	-0.10723079
148	0xbd6ef2a5	-0.058336873
149	0x3dd7518c	0.10513601
150	0x3eb67c52	0.35641724
151	0x3c981485	0.018564472
152	0xbe3133c5	-0.17304905
153	0x3e3f75ae	0.18697235
154	0x3e75cf88	0.24004948
155	0x3e497526	0.19673595
156	0xbe3bb4f6	-0.1833075
157	0xbe0f272f	-0.13979791
158	0xbe8ffe00	-0.28123474
159	0xbd69c347	-0.057070997
160	0x3e95f46b	0.2928804
161	0x3ce7b962	0.02828664
162	0x3c8cc577	0.017184002
163	0x3ed57f82	0.41698843
164	0xbd669e68	-0.05630341
165	0xbcffac6d	-0.031210149
166	0xbccfed1e	-0.025381621
167	0xbdbd774d	-0.092512704
168	0x3e2eefc9	0.17083658
169	0x3dd5d64c	0.104412645
170	0xbd94b42a	-0.07260926
171	0xbdfbf46c	-0.12302479
172	0xbe053117	-0.13007008
173	0x3d2b73e3	0.041858565
174	0x3caa9c92	0.020826612
175	0x3cb84740	0.022494912
176	0xbbfc7752	-0.007704654
177	0x3e076b37	0.13224493
178	0x3d704ec8	0.05866888
179	0xbdc56001	-0.09637452
180	0x3cdfa878	0.027302012
181	0xbeda6ad3	-0.42659625
182	0x3e5cffba	0.21581927
183	0x3d681685	0.0566621
184	0xbc2208c4	-0.009889785
185	0xbdc298fc	-0.09501836
186	0xbef02c22	-0.4690867
187	0x3e89033d	0.26760283
188	0xbe048f0f	-0.12945198
189	0xbc4b7704	-0.012418512
190	0x3dcf56f2	0.101240054
191	0xbe94b5cc	-0.2904495
192	0x3e99b3f8	0.30020118
193	0xbe20a2d2	-0.15687111
194	0xbe180698	-0.14846265
195	0x3db28d6a	0.08718379
196	0x3e12e43c	0.14344877
197	0x3e6dc136	0.23218235
198	0xbd729da3	-0.059232365
199	0x3b90fa08	0.0044243373
200	0x3e0e0732	0.13869932
201	0xbdb2c757	-0.08729427
202	0xbd008dfc	-0.031385407
203	0x3e91561a	0.28386003
204	0x3d80afd1	0.06283534
205	0xbcb09e69	-0.02155991
206	0xbdda7b34	-0.106680304
207	0xbe8b5624	-0.27214158
208	0x3a2c450c	0.0006571568
209	0x3dca11be	0.09866665
210	0xbd669fbe	-0.056304686
211	0x3d0aeb76	0.03391596
212	0x3d6e7ea9	0.05822626
213	0xbdb7fe73	-0.08984079
214	0xbe582ad7	-0.21110092
215	0x3e6a263a	0.22866145
216	0x3e5f55ff	0.21810149
217	0x3e90e7b6	0.2830178
218	0x3e309780	0.17245293
219	0x3e3b41c5	0.18286808
220	0x3e07abf8	0.13249195
221	0x3e086a21	0.13321735
222	0xbd6b1025	-0.057388443
223	0x3d88b0e4	0.06674364
224	0xbeb15405	-0.34634414
225	0xbe15f0bd	-0.14642616
226	0xbdfcb21e	-0.12338661
227	0xbeba8c08	-0.3643496
228	0x3df93df5	0.121700205
229	0x3cf3a6c4	0.029742606
230	0x3c481c1b	0.012213732
231	0xbd5e0929	-0.054207955
232	0xbd1b7b02	-0.037959106
233	0xbdce006e	-0.10058676
234	0x3e0e6ba4	0.13908249
235	0x3eaf0fcc	0.3419174
236	0x3d7d7723	0.061881196
237	0xbe681267	-0.2266327
238	0xbdf56065	-0.119812764
239	0xbd63230b	-0.05545334
240	0x3d31d1b4	0.04341288
241	0xbdb7ff02	-0.08984186
242	0x3d6b7697	0.057486143
243	0x3def09b0	0.116717696
244	0x3d0b6bb3	0.034038257
245	0xbd0f033c	-0.034915194
246	0x3e123f2a	0.14281908
247	0xbef1704c	-0.47155988
248	0xbdc701b4	-0.09717122
249	0xbe1ac0b0	-0.15112567
250	0x3e71d9bc	0.23618215
251	0x3ebe8c65	0.37216488
252	0x3e5f7ebd	0.2182569
253	0x3e09deb4	0.13463861
254	0x3d35628b	0.04428343
255	0xbd89c4ba	-0.06726976

fc2.bias f4 [64]
0	0x3e0f5596	0.13997492
1	0x3da52179	0.08063025
2	0xbd3e7caa	-0.046505608
3	0xbe02d49a	-0.12776414
4	0xbe762b42	-0.24039939
5	0x3c7e5adf	0.015524595
6	0xbe10c22b	-0.14136569
7	0xbd080ae8	-0.033213526
8	0x3e45af0e	0.1930506
9	0xbdd88011	-0.10571302
10	0xbdcf5728	-0.101240456
11	0xbe1f60a5	-0.1556421
12	0xbd9e2670	-0.07722175
13	0x3e2afc5c	0.1669783
14	0xbd3ac361	-0.045596484
15	0x3caeda9c	0.021344475
16	0x3d001926	0.031273983
17	0x3e81987f	0.25311658
18	0xbd1c95a3	-0.038228642
19	0x3ecfde1a	0.40599138
20	0xbdebeef5	-0.11520187
21	0xbd81f6bc	-0.06345889
22	0x3e746c97	0.23869549
23	0xbe2c6223	-0.16834311
24	0x3e67f270	0.22651076
25	0x3be825a8	0.007084567
26	0x3eb45b96	0.35226125
27	0x3ee959e6	0.455764
28	0x3d72630d	0.059176493
29	0x3dbfebd4	0.093711525
30	0x3e132c68	0.14372408
31	0x3e402757	0.18765007
32	0xbe5294e0	-0.20564604
33	0x3d51c6a8	0.051214844
34	0xbe709bbe	-0.23496911
35	0x3e817bc4	0.25289738
36	0x3cebdaf4	0.028790928
37	0x3e00d46e	0.12581035
38	0xbdf7e7de	-0.12104772
39	0xbe5c3f90	-0.21508622
40	0xbc6ac71c	-0.014329698
41	0x3e5a51a0	0.213202
42	0xbddb7acc	-0.10716781
43	0x3b92a34f	0.0044750343
44	0x3ec8f845	0.39251915
45	0x3e987c4d	0.29782334
46	0xbd4c13be	-0.049823515
47	0x3e187ff0	0.14892554
48	0x3de83453	0.11338105
49	0x3eb83b69	0.35982826
50	0x3d36cd58	0.044629425
51	0xbde0fca0	-0.109856844
52	0xbb0a8fdf	-0.0021142883
53	0x3eb6b695	0.35686174
54	0x3e0d2b3c	0.13786024
55	0xbca3c362	-0.019990627
56	0x3e3309bb	0.1748418
57	0xbdb2b9b5	-0.08726827
58	0x3e8b4c8d	0.2720684
59	0x3e96ebe4	0.29476845
60	0xbded1fcd	-0.11578331
61	0x3d587d0b	0.052853625
62	0x3e97d09e	0.2965135
63	0x3d9ced43	0.076624416

fc3.weight f4 [4, 64]
0	0xbcef0ae1	-0.029179992
1	0x3d22407c	0.03961228
2	0xbe1337df	-0.14376782
3	0x3ba56e61	0.0050485586
4	0xbe101d2d	-0.1407363
5	0xbc290327	-0.010315693
6	0xbe9aaf87	-0.30212042
7	0xbcaee767	-0.021350576
8	0x3e2900ef	0.16504262
9	0xbe95752e	-0.29190964
10	0xbe3b8606	-0.18312845
11	0xbe1c7be1	-0.15281631
12	0x3eadbf17	0.33934852
13	0x3db13432	0.086525336
14	0x3e1c85b7	0.15285383
15	0xbbefd5b1	-0.007319175
16	0xbe09e64e	-0.1346676
17	0x3d0fe47e	0.035130017
18	0xbd98ecda	-0.07467051
19	0x3e3653d0	0.1780541
20	0xbec0cb11	-0.37654927
21	0xbe23057d	-0.15920062
22	0x3e3332c9	0.17499842
23	0xbe279722	-0.16366246
24	0x3d96ab45	0.07356886
25	0x3eccb430	0.39981222
26	0x3e48b701	0.1960106
27	0x3e72ba74	0.23703939
28	0x3d70b061	0.058761958
29	0x3e8d3f7b	0.27587494
30	0x3dc98037	0.09838908
31	0x3e16b3e7	0.14717065
32	0xbdba9079	-0.09109587
33	0xbe826b58	-0.25472522
34	0xbe30f1e4	-0.17279774
35	0x3b938349	0.0045017344
36	0x3e26ff75	0.16308387
37	0x3e84c408	0.2593081
38	0xbdb13d57	-0.08654278
39	0xbe177b9e	-0.1479325
40	0x3e994c06	0.29940814
41	0x3e72a6da	0.23696461
42	0x3e4937c5	0.1965018
43	0x3f143db6	0.57906663
44	0x3e009232	0.12555769
45	0x3e3388f4	0.17532712
46	0x3e10fe62	0.1415954
47	0x3d1f5321	0.038897637
48	0x3ecebe85	0.4037973
49	0x3ea1fb59	0.31637076
50	0xbed21640	-0.410326
51	0x3e8b48d1	0.27203992
52	0x3d7aa91a	0.061196424
53	0x3e5cca4b	0.21561544
54	0x3e42c818	0.19021642
55	0x3e55fd48	0.208974
56	0x3d0f1458	0.03493151
57	0x3ea87100	0.32898712
58	0x3e36ecc2	0.17863753
59	0x3de71f4b	0.112852655
60	0xbe1d050e	-0.1533396
61	0x3e10e032	0.14148024
62	0x3e07e266	0.13269958
63	0x3e37efe9	0.17962612
64	0x3eafd2fb	0.34340653
65	0x3e4b5697	0.1985725
66	0xbb4cefec	-0.0031270934
67	0xbdce6a6a	-0.100788906
68	0x3d3e72a3	0.046496045
69	0x3e270ee4	0.16314274
70	0xbe226b65	-0.1586128
71	0x3e096125	0.13415964
72	0x3e030b39	0.1279725
73	0xbe97d819	-0.29657057
74	0xbd2bd2fb	-0.041949254
75	0xbe033cc7	-0.12816153
76	0x3edb2519	0.4280174
77	0x3e681e52	0.22667816
78	0x3e62a20a	0.22132125
79	0x3dcb3db2	0.09923877
80	0x3d29128a	0.041277446
81	0x3daa07da	0.08302279
82	0x3ac9baa0	0.0015390702
83	0x3e67b096	0.22625956
84	0xbe9f5c66	-0.31125182
85	0xbe876985	-0.26447693
86	0x3e03aaf2	0.12858179
87	0x3debcb7f	0.11513423
88	0x3dbcf361	0.09226108
89	0x3e51e746	0.2049838
90	0x3d8b6a6c	0.06807408
91	0x3e3d46e8	0.1848408
92	0x3c530781	0.012880207
93	0x3e072d73	0.13200931
94	0x3e292134	0.16516572
95	0x3de1ab1e	0.11018966
96	0xbd2ac08b	-0.04168753
97	0xbea31865	-0.3185455
98	0xbe1228a2	-0.14273313
99	0x3e6b4d3a	0.22978678
100	0x3e21c0bf	0.15796183
101	0x3e9eadd1	0.30991986
102	0xbd2eca1f	-0.042673226
103	0xbe3b11d7	-0.18268524
104	0x3e96a2a1	0.2942095
105	0x3dc3199f	0.09526371
106	0x3cf47652	0.029841576
107	0x3f029f59	0.51024395
108	0x3e70775c	0.23483032
109	0x3e491aa8	0.19639075
110	0x3c9b4d78	0.018957838
111	0xbde2e4bd	-0.110787846
112	0x3ede8c1c	0.4346627
113	0x3ea24fc3	0.31701478
114	0xbdcda09b	-0.10040399
115	0x3dc40eeb	0.09573158
116	0xbd4da6b7	-0.05020782
117	0x3e5cba68	0.21555483
118	0x3de413f8	0.11136621
119	0x3e38440e	0.17994711
120	0xbc01443b	-0.007889803
121	0x3ec7eebe	0.39049333
122	0x3d3d7421	0.046253327
123	0x3cfd3743	0.03091014
124	0xbe5eed55	-0.21770222
125	0x3e562a61	0.20914604
126	0x3e218088	0.15771687
127	0x3d9a22b3	0.075261496
128	0xbe913a68	-0.28364873
129	0x3b6bbd7b	0.0035971093
130	0xbeb33c46	-0.35006922
131	0xbe4f0185	-0.20215423
132	0xbe8fb373	-0.28066596
133	0x3e12d04a	0.14337268
134	0xbce5c823	-0.028049534
135	0x3dc500a5	0.096192636
136	0x3d7c5da5	0.061612744
137	0xbe42914e	-0.19000742
138	0xbe255b08	-0.16148007
139	0x3d858ae9	0.06520636
140	0x3e969cba	0.29416448
141	0x3e8a4d9e	0.27012342
142	0x3e8b876f	0.27251765
143	0x3d801c18	0.062553585
144	0xbe89830b	-0.2685779
145	0xbd718a59	-0.05896983
146	0x3dbab787	0.09117036
147	0x3d968a75	0.07350627
148	0xbdfa85e6	-0.1223257
149	0xbe5b1fbd	-0.21398826
150	0x3e25d536	0.16194615
151	0x3dce9bf5	0.1008834
152	0x3e63123f	0.22174929
153	0x3e90077a	0.28130704
154	0x3e35fc20	0.1777196
155	0x3db302e3	0.08740785
156	0x3e70c3d7	0.23512207
157	0x3d7e4f9a	0.062087633
158	0x3c7e84dc	0.015534606
159	0xbc9f4fcd	-0.019447232
160	0xbe38720c	-0.18012255
161	0x3d23b730	0.039969623
162	0xbe4bf492	-0.19917515
163	0x3e633c3f	0.22190951
164	0x3e7641d0	0.24048543
165	0x3e675414	0.22590667
166	0xbe4ad1f8	-0.19806659
167	0xbe902589	-0.28153637
168	0x3d812ffe	0.06307982
169	0x3e299534	0.16560823
170	0xbe9d92e0	-0.3077612
171	0x3e62726b	0.2211396
172	0x3e391b81	0.18076898
173	0x3e441af2	0.19150904
174	0x3e8d9fbc	0.2766093
175	0xbea7bab7	-0.3275964
176	0x3e7786f1	0.2417257
177	0x3eb26c9b	0.34848484
178	0x3d043c90	0.03228432
179	0xbbd40084	-0.006469788
180	0x3e27fa62	0.16404107
181	0x3e3ac704	0.18239981
182	0x3c60923a	0.013706738
183	0x3eb3ecce	0.35141605
184	0x3de92622	0.113842264
185	0x3ecaec78	0.39633536
186	0x3e18bd81	0.1491604
187	0x3de5e7f9	0.11225886
188	0xbebf51a3	-0.3736697
189	0x3e5d6d7c	0.21623796
190	0x3e573d1b	0.21019404
191	0x3e972eea	0.2952798
192	0x3f099068	0.5373597
193	0x3e40a556	0.1881307
194	0x3c143181	0.009045006
195	0xbe4236aa	-0.18966165
196	0xbdf1e1c6	-0.11810641
197	0x3dda1f0d	0.10650454
198	0x3dd7d5eb	0.105388485
199	0x3ea3d718	0.3200004
200	0x3de6a641	0.11262179
201	0xbe62b17e	-0.2213802
202	0xba911c74	-0.0011071102
203	0xbef8e508	-0.48612237
204	0x3e8c2341	0.27370647
205	0x3e353e0c	0.1769945
206	0xbd74a81b	-0.05973063
207	0xbeab58dc	-0.33466232
208	0xbd67c618	-0.0565854
209	0x3e9703c7	0.2949507
210	0xbeabe8b2	-0.3357597
211	0x3deea7e9	0.1165312
212	0xbe172b81	-0.14762689
213	0x3e1a31ad	0.15058012
214	0xbe07035d	-0.13184877
215	0xbdb5e1e4	-0.08880976
216	0x3d24a03b	0.04019187
217	0x3ebf5eac	0.37376916
218	0x3e2fe876	0.1717852
219	0x3e5945c6	0.21218023
220	0x3e188d66	0.14897689
221	0x3e80f9da	0.25190622
222	0x3e6ffbdf	0.23435925
223	0x3da023db	0.07819339
224	0xbe3f7ed5	-0.18700726
225	0xbd44fb35	-0.048091132
226	0xbe953da0	-0.2914858
227	0x3da9e4ab	0.08295568
228	0x3e870f06	0.2637865
229	0x3e907913	0.28217372
230	0xbe44a32d	-0.19202872
231	0xbe69b038	-0.22821128
232	0x3e563647	0.20919143
233	0xbe06921a	-0.13141671
234	0xbd7ae066	-0.06124916
235	0x3f282aaa	0.656901
236	0x3e5298aa	0.20566049
237	0x3ec3178a	0.38103896
238	0x3db52eac	0.088467926
239	0x3c8fc53a	0.0175501
240	0x3e801129	0.25013092
241	0x3e07f96d	0.13278742
242	0xbdcf456f	-0.10120665
243	0xbc1703c6	-0.009217208
244	0xbe253439	-0.16133203
245	0x3e617f3d	0.22021194
246	0x3cf70f9e	0.030158814
247	0x3da7add3	0.08187451
248	0x3e4e8fcf	0.20172046
249	0x3d91c5eb	0.07117828
250	0x3e64f3cb	0.22358625
251	0x3e0fd73d	0.1404695
252	0xbe070361	-0.13184883
253	0x3e7b48dc	0.24539512
254	0x3dc06109	0.09393508
255	0x3dcebbc8	0.1009441

fc3.bias f4 [4]
0	0x3e2a84cf	0.16652225
1	0x3dc0f415	0.09421555
2	0x3e5e831b	0.217297
3	0x3d04c9b7	0.032418933
