best_model.pth (torch, 16683 bytes, 6 tensors)

fc1.weight f4 [32, 37]
0.030228194 0.061952725 0.043133043 0.029002657 -0.035039227 0.052056365 0.069231704 0.061921593
0.11257301 0.07698642 0.21852104 -0.67170876 -0.45177335 -0.51304704 -1.9053504 0.071936354
0.06846158 0.06893574 0.08923507 -0.007497994 0.08471522 0.111335546 0.10941458 0.19499287
0.14766243 0.041133177 0.039633382 0.0367616 0.044747204 -0.01973891 0.014797442 0.036264922
0.005739183 0.024185559 -0.028161928 -0.010344854 -0.0029095004 0.026742343 0.19965197 0.13254307
0.05681855 -0.1513128 0.019476485 -0.13973261 -0.06417511 -0.12517856 -0.15346391 -0.021564072
0.0067975163 0.016597493 0.09665058 0.06876494 0.038209498 0.15973973 0.05901603 0.05368517
-0.2760785 -0.13814943 -0.045915753 0.0062039196 -0.013542632 -0.009850368 -0.52027607 0.25078204
0.17444634 -0.2396774 -0.8639505 0.076174766 0.19874805 0.1288313 0.12800467 -0.045541845
-0.017947564 0.007346725 -0.18802318 0.0858613 0.21683708 -0.10991351 -0.16739243 -0.35753226
-0.24277511 0.2907259 -0.2611109 -1.3727195 -0.3920777 0.004168624 0.06692862 -0.17463171
-0.067049265 -0.11243873 -0.22684504 0.35933915 -0.29881933 -0.06991578 0.15786645 -0.30076948
-0.0077117034 -0.6263516 -0.0938323 -0.19747405 -0.3835417 0.23828122 -0.098501444 -1.1552725
-0.14521793 -0.27401876 -0.06563567 -0.6019757 -0.51067966 0.14921181 -0.008880512 0.38499188
-0.5955276 -0.3090154 -0.39769474 -1.788677 -0.025093433 -0.01572175 -0.024852118 -0.03233554
-0.055062875 -0.0453175 -0.023742795 -0.040044624 -0.021302877 0.0057568736 -0.12121618 -0.031282037
-0.083427384 -0.06248997 -0.005633931 -0.036301713 0.008563915 0.012539472 -0.005332186 -0.0027999165
-0.036146905 0.027265573 0.08487452 0.18141012 0.24866939 -0.020346716 0.012809465 -0.0010648022
-0.008848364 -0.047051698 -0.0073424987 -0.0074555646 -0.1896061 -0.21691251 -0.15921679 -0.18647668
-0.08493373 0.09784272 -0.18370391 -0.2798684 -0.24340501 -1.8183498 -0.10659389 0.02381817
-0.022416202 -0.07968492 -0.12884338 -0.108816385 -0.13256054 0.0008345903 0.035617135 0.082103476
-0.18090878 0.062515475 0.0769573 0.0015990585 -0.07348331 -0.03452175 -0.1121497 0.28568715
0.03711746 0.17854987 0.1490543 -0.5859663 0.14532876 -0.45957053 -1.353556 -0.059501477
0.01868665 -0.02410582 -0.03506055 -0.0011342552 -0.10511503 0.017025158 -0.111222476 0.15454462
0.09575307 0.07090053 0.09351286 -0.02998998 -0.10780938 -0.058439597 -0.04360029 -0.06426619
-0.07037782 0.05269654 0.026639035 -0.082612164 -0.0127361035 0.3588564 -0.41007882 -0.008419704
-0.056058012 -0.7606605 -0.16234936 -0.061683074 0.09071878 0.08767956 0.08416638 0.14389247
-0.080266915 -0.28176573 -0.23133808 -0.98749346 0.091238864 0.013769402 0.0043632546 0.05359027
0.055910114 0.08219507 0.0441464 -0.1514687 -0.060543843 0.05511583 0.22718212 0.4228685
-0.0038315435 0.11748454 0.12514108 0.21573654 0.13055755 -0.07023026 -0.058813337 0.09577919
0.070874475 0.17541052 -0.10182075 -0.045625504 0.11027773 0.19931395 0.42832154 -0.005859363
0.072269395 -0.033137526 -0.088335976 -0.15546672 0.017210653 0.06392544 -0.020975826 0.08328722
00000000: 1ea1 f73c 24c2 7d3d 46ac 303d fb96 ed3c
00000010: 4b85 0fbd 0e39 553d 5ac9 8d3d 7fa1 7d3d
00000020: ae8c e63d 0eab 9d3d fbc3 5f3e 1bf5 2bbf
00000030: d64e e7be 0d57 03bf 86e2 f3bf 5e53 933d
00000040: 9635 8c3d 2e2e 8d3d e0c0 b63d bcb1 f5bb
00000050: 2c7f ad3d e403 e43d c014 e03d 36ac 473e
00000060: d234 173e 437b 283d 9d56 223d 5593 163d
00000070: d848 373d 7fb3 a1bc f870 723c 878a 143d
00000080: c20f bc3b cb20 c63c d8b3 e6bc 767d 29bc
00000090: 51ad 3ebb c212 db3c 9171 4c3e 5fb9 073e
000000a0: 91ba 683d bef1 1abe 268d 9f3c 1116 0fbe
000000b0: 3d6e 83bd cf2e 00be a525 1dbe 23a7 b0bc
000000c0: b3bd de3b 77f7 873c bdf0 c53d a2d4 8c3d
000000d0: 9081 1c3d d092 233e cbba 713d fbe4 5b3d
000000e0: 295a 8dbe 0b77 0dbe 2812 3cbd 404a cb3b
000000f0: eae1 5dbc 7063 21bc d030 05bf 8166 803e
00000100: 10a2 323e fe6d 75be dc2b 5dbf 8401 9c3d
00000110: 9c84 4b3e 5aec 033e a813 033e 168a 3abd
00000120: c506 93bc ccbc f03b 2689 40be 0dd8 af3d
00000130: 8a0a 5e3e 561a e1bd ec68 2bbe 780e b7be
00000140: 0a9a 78be 06da 943e 54b0 85be 46b5 afbf
00000150: 69be c8be f498 883b df11 893d a8d2 32be
00000160: 2051 89bd 4746 e6bd 114a 68be 4dfb b73e
00000170: d9fe 98be 0130 8fbd bea7 213e 75fe 99be
00000180: 75b2 fcbb 9458 20bf 262b c0bd a336 4abe
00000190: 945f c4be feff 733e 20bb c9bd f8df 93bf
000001a0: 02b4 14be 304c 8cbe ff6b 86bd 141b 1abf
000001b0: e7bb 02bf fbca 183e 917f 11bc a81d c53e
000001c0: 7f74 18bf 4437 9ebe a59e cbbe 5ef3 e4bf
000001d0: be90 cdbc e6ca 80bc ab96 cbbc 4572 04bd
000001e0: 9c89 61bd d89e 39bd 4080 c2bc d505 24bd
000001f0: 5f83 aebc 28a4 bc3b 3040 f8bd 9821 00bd
00000200: fadb aabd 7cf5 7fbd d79c b8bb 1bb1 14bd
00000210: aa4f 0c3c 5c72 4d3c 9eb9 aebb ce7e 37bb
00000220: c70e 14bd 0d5c df3c b1d2 ad3d 93c3 393e
00000230: 30a3 7e3e 28ae a6bc cade 513c d590 8bba
00000240: bbf8 10bc 48b9 40bd 5899 f0bb cf4d f4bb
00000250: 1a28 42be 501e 5ebe ba09 23be bef3 3ebe
00000260: bcf1 adbd c461 c83d e11c 3cbe e94a 8fbe
00000270: 2a3f 79be b0bf e8bf e64d dabd 531e c33c
00000280: 2fa2 b7bc d931 a3bd 85ef 03be 20db debd
00000290: f3bd 07be 68c8 5a3a 46e3 113d de25 a83d
000002a0: 2740 39be 1d08 803d ca9b 9d3d 8097 d13a
000002b0: 6b7e 96bd ae66 0dbd beae e5bd 9645 923e
000002c0: 7a08 183d c7d5 363e b1a1 183e e301 16bf
000002d0: 10d1 143e d44c ebbe 5341 adbf d2b7 73bd
000002e0: bf14 993c 9279 c5bc a79b 0fbd 4aab 94ba
000002f0: 8d46 d7bd 5878 8b3c 9cc8 e3bd f240 1e3e
00000300: 301a c43d 4c34 913d ac83 bf3d 8cad f5bc
00000310: 2acb dcbd 5c5e 6fbd 3896 32bd fe9d 83bd
00000320: 3f22 90bd 54d8 573d 1b3a da3c 9130 a9bd
00000330: 17ab 50bc 07bc b73e daf5 d1be ccf2 09bc
00000340: 169d 65bd a6ba 42bf e93e 26be 64a7 7cbd
00000350: c5ca b93d 5791 b33d 6c5f ac3d 8c58 133e
00000360: fb62 a4bd 9943 90be e4e3 6cbe 5fcc 7cbf
00000370: 71db ba3d 0f99 613c a2f9 8e3b 7981 5b3d
00000380: 0102 653d e455 a83d dbd2 343d 9c1a 1bbe
00000390: d2fc 77bd 23c1 613d 6ea2 683e 3882 d83e
000003a0: a21a 7bbb bc9b f03d fc24 003e 0aea 5c3e
000003b0: e1b0 053e e2d4 8fbd 41e6 70bd e127 c43d
000003c0: a326 913d d19e 333e 6687 d0bd cfe1 3abd
000003d0: 4ad9 e13d f518 4c3e f64c db3e e6ff bfbb
000003e0: fa01 943d 37bb 07bd 7ee9 b4bd ab32 1fbe
000003f0: 5bfd 8c3c 57eb 823d 7fd5 abbc 7d92 aa3d

fc1.bias f4 [32]
-0.08735222 -0.11031539 0.21262567 0.15841438 0.22908705 -0.044342358 -0.0431764 0.041890536
0.20808241 0.1849578 0.10185803 -0.007754353 0.09236958 -0.13083316 0.11356924 -0.07089079
-0.006341845 0.06335503 0.09283516 -0.12882511 -0.14814422 -0.021799557 0.017002244 0.17084557
-0.07058184 -0.053356916 0.007826819 0.08022091 0.08306053 -0.057575706 -0.18941696 -0.14519328
00000000: b9e5 b2bd 09ed e1bd 8bba 593e 6137 223e
00000010: cc95 6a3e 55a0 35bd bdd9 30bd 6995 2b3d
00000020: 8e13 553e 9465 3d3e f19a d03d 3a18 febb
00000030: 432c bd3d 21f9 05be fd96 e83d 312f 91bd
00000040: 40cf cfbb 48c0 813d 5c20 be3d bbea 03be
00000050: 1eb3 17be fc94 b2bc 4a48 8b3c 24f2 2e3e
00000060: 368d 90bd c88c 5abd 0f3c 003c dc4a a43d
00000070: a41b aa3d 81d4 6bbd 85f6 41be 8cad 14be

fc2.weight f4 [64, 32]
-0.31476092 0.05476925 -0.23357287 0.6977383 0.050502695 -0.07424406 -0.16056037 -0.10892458
-0.0023431345 -0.047384154 -0.040004086 0.14464958 0.08375042 -0.11246984 0.13662112 0.039778747
-0.27969906 0.08589062 -0.059346005 -0.044436384 -0.084714144 0.00028042914 0.14022203 -0.63578373
-0.13006851 -0.008756871 -0.13619916 -0.29228255 -0.06523274 -0.33284527 0.15972401 -0.0134065375
-0.36494985 -0.028286966 0.33789065 0.5090719 -0.09108787 0.015061923 -0.03696846 0.022172127
0.070228115 -0.115898564 -0.0478966 0.15129893 -0.09295727 -0.0059438334 0.10246947 -0.20705275
0.09925358 0.08505285 0.020933116 0.12797637 0.06213424 0.17639975 0.24005002 0.43815896
-0.29606935 -0.11443892 -0.26584578 -0.45149976 0.107957445 -0.06097793 0.0243508 0.11781959
-0.28654447 0.3972443 -0.21793415 0.085521095 0.09063362 0.16938573 -0.29616505 0.1475521
-0.17555076 -0.27191478 0.2108925 0.07807467 -0.20801656 0.038032398 -0.02757412 -0.0044821287
0.03722056 0.18286327 0.065181114 -0.17613809 0.126327 0.041486777 -0.018569551 -0.11094916
0.25784698 0.036272112 -0.5393845 -0.305482 -0.22955222 -0.17372 0.24683638 0.020475173
-0.39249578 -0.14612424 0.0041591884 -0.19361463 -0.29016432 0.00034007657 0.15353821 0.105197735
-0.31954122 0.050784275 -0.022413662 -0.09160699 -0.45982742 0.15227391 0.021152118 -0.017008398
0.047974147 -0.043555994 -0.057704635 -0.09487785 0.23899904 0.039695714 -0.077612594 -0.32871294
-0.032662258 0.035064157 -0.38453636 -0.15919425 -0.0034457666 -0.05011487 0.01110058 0.07449822
0.31513283 0.11984515 0.3683263 -0.2568238 0.14129023 0.117553666 0.020413818 0.21428221
0.13924246 0.22089297 0.03334057 0.1248925 -0.10450784 -0.070882976 -0.13624449 0.029765172
0.13883965 0.10294886 -0.3394851 -0.14958242 -0.109230936 0.21150132 0.37284553 0.018909594
-0.20584847 0.19509143 0.2502697 0.19758973 -0.17917955 -0.13960536 -0.35699323 -0.067988895
0.32928467 -0.008054602 0.05833443 0.33448362 -0.07654603 -0.06973314 -0.029660325 -0.0188412
0.107497126 0.07873695 -0.09106571 -0.1734444 -0.083272584 0.077718176 -0.015694011 0.06374214
-0.0063719456 0.13234906 0.013813778 -0.09755438 0.013970394 -0.43611732 0.24844548 0.02534023
-0.020900277 -0.10128398 -0.4741615 0.2603253 -0.149984 -0.03463121 0.111825496 -0.16365217
0.33957878 -0.1885279 -0.122669436 0.14942099 0.18315332 0.21766919 -0.025904765 0.015211781
0.14382336 -0.061567828 -0.02449207 0.26934 0.079772234 -0.0015132496 -0.06475525 -0.2239821
-0.0312467 0.08477325 -0.094665356 0.016643547 0.063364185 -0.050215848 -0.26304668 0.2568706
0.21998033 0.2778907 0.22952442 0.19289333 0.1207756 0.11868768 -0.06464355 0.113463305
-0.3531519 -0.011903838 -0.039690867 -0.2766672 0.10668259 0.006817291 -0.01511195 -0.09869672
-0.03853155 -0.11349262 0.13149913 0.32281566 0.016040007 -0.17254615 -0.120441005 -0.045334928
-0.01179995 -0.09156407 0.09757223 0.05937739 -0.002643587 -0.052949265 0.15128449 -0.4679973
-0.09145334 -0.19202688 0.21349005 0.43459985 0.22219844 0.11885058 -0.0042713014 -0.03711392
00000000: 5828 a1be b955 603d ba2d 6fbe fa9e 323f
00000010: eadb 4e3d 450d 98bd f069 24be da13 dfbd
00000020: 468f 19bb e315 42bd 53db 23bd 051f 143e
00000030: 5785 ab3d 9656 e6bd 68e6 0b3e 0aef 223d
00000040: b734 8fbe 6ce7 af3d cc14 73bd ed02 36bd
00000050: 9c7e adbd 9006 9339 5d96 0f3e b9c2 22bf
00000060: ae30 05be fb78 0fbc cb77 0bbe 0fa6 95be
00000070: be98 85bd b26a aabe b18e 233e 18a7 5bbc
00000080: b5da babe 11ba e7bc 0100 ad3e 8952 023f
00000090: 478c babd 49c6 763c 3d6c 17bd 52a2 b53c
000000a0: c2d3 8f3d 3a5c edbd 3a2f 44bd 1bee 1a3e
000000b0: 6260 bebd 7dc4 c2bb 83db d13d a305 54be
000000c0: 7645 cb3d 3030 ae3d ed7b ab3c 3d0c 033e
000000d0: 7980 7e3d 23a2 343e accf 753e 5f56 e03e
000000e0: 6796 97be f45e eabd f01c 88be fa2a e7be
000000f0: cb18 dd3d fec3 79bd 547b c73c 664b f13d
00000100: f5b5 92be 9b63 cb3e 212a 5fbe af25 af3d
00000110: 1f9e b93d 7473 2d3e f2a2 97be e617 173e
00000120: 94c3 33be 6a38 8bbe 34f4 573e 9de5 9f3d
00000130: 4b02 55be dcc7 1b3d 1fe3 e1bc d2de 92bb
00000140: 9674 183d 8240 3b3e ad7d 853d 8b5d 34be
00000150: dd5b 013e 0aee 293d 2c1f 98bc 5039 e3bd
00000160: 8504 843e 1192 143d 1a15 0abf 2368 9cbe
00000170: bd0f 6bbe a8e3 31be adc2 7c3e 8dbb a73c
00000180: 35f5 c8be 98a1 15be cd49 883b ea42 46be
00000190: 6b90 94be 4e4c b239 1f39 1d3e e971 d73d
000001a0: e89a a3be 2c03 503d db9c b7bc 729c bbbd
000001b0: 806e ebbe b1ed 1b3e 3547 ad3c 3255 8bbc
000001c0: 8a80 443d c567 32bd b25b 6cbd 514f c2bd
000001d0: 2abc 743e f997 223d 5af3 9ebd 104d a8be
000001e0: dcc8 05bd 6f9f 0f3d f3e1 c4be d103 23be
000001f0: 5fd2 61bb 4045 4dbd 35df 353c 8692 983d
00000200: 1759 a13e 6071 f53d 4495 bc3e 697e 83be
00000210: 63ae 103e fabf f03d e13a a73c cc6c 5b3e
00000220: 9395 0e3e c431 623e 1f90 083d a4c7 ff3d
00000230: 3508 d6bd 182b 91bd ad83 0bbe 17d6 f33c
00000240: fb2b 0e3e dad6 d23d fed0 adbe 222c 19be
00000250: 78b4 dfbd cd93 583e 9ce5 be3e 4be8 9a3c
00000260: f1c9 52be 0cc6 473e 5a23 803e f654 4a3e
00000270: d87a 37be b5f4 0ebe d1c7 b6be c33d 8bbd
00000280: 0098 a83e 73f7 03bc 15f0 6e3d 7041 ab3e
00000290: 2ac4 9cbd 40d0 8ebd 36fa f2bc dc58 9abc
000002a0: 7427 dc3d d740 a13d a980 babd 699b 31be
000002b0: d18a aabd b52a 9f3d ba90 80bc 3d8b 823d
000002c0: c1cb d0bb 8386 073e 2f53 623c 97ca c7bd
000002d0: 14e4 643c c54a dfbe 7e68 7e3e 5096 cf3c
000002e0: 0f37 abbc fa6d cfbd 4cc5 f2be 5c49 853e
000002f0: 6895 19be 75d9 0dbd c404 e53d 6f94 27be
00000300: 45dd ad3e 750d 41be 1d3a fbbd d101 193e
00000310: 8b8c 3b3e ace4 5e3e 3b36 d4bc d53a 793c
00000320: 6e46 133e 8c2e 7cbd 98a3 c8bc efe6 893e
00000330: a05f a33d 3b58 c6ba 679e 84bd 905b 65be
00000340: 14f9 ffbc 999d ad3d e9df c1bd 0c58 883c
00000350: 15c5 813d 22af 4dbd 0eae 86be 8b84 833e
00000360: 8642 613e b147 8e3e 7308 6b3e d485 453e
00000370: 3359 f73d 8712 f33d d663 84bd 735f e83d
00000380: 53d0 b4be 5108 43bc e492 22bd 53a7 8dbe
00000390: 677c da3d 9563 df3b 1d98 77bc 8221 cabd
000003a0: 42d3 1dbd d26e e8bd b5a7 063e 1848 a53e
000003b0: 5566 833c f0af 30be c6a9 f6bd 1eb1 39bd
000003c0: 9454 41bc f185 bbbd f3d3 c73d b535 733d
000003d0: 0840 2dbb 54e1 58bd 52ea 1a3e 589d efbe
000003e0: e44b bbbd b2a2 44be 239d 5a3e df83 de3e
000003f0: fd87 633e ef67 f33d 46f6 8bbb c404 18bd

fc2.bias f4 [64]
0.12614666 0.0871534 -0.055891387 -0.12816568 -0.25125685 0.016118512 -0.1331131 -0.039142624
0.20693421 -0.10590623 -0.04838341 -0.17017661 -0.09367673 0.1685979 -0.051816136 0.028836098
0.028041884 0.25595886 -0.077511616 0.42226794 -0.114063345 -0.06858622 0.2457643 -0.16834311
0.2355056 0.013129797 0.3664586 0.47252837 0.062633015 0.12326344 0.14322588 0.19233559
-0.20131512 0.06886434 -0.24897389 0.2673733 0.045884747 0.12056047 -0.13903603 -0.21290521
-0.012851293 0.1873863 -0.05980764 -0.0025776618 0.4078563 0.30866066 -0.06011446 0.14712323
0.11860648 0.3737167 0.053733498 -0.127076 0.0012877567 0.37363556 0.13818564 -0.00987499
0.17842424 -0.08605584 0.28725258 0.3049016 -0.11472143 0.0557639 0.31114906 0.04655046
00000000: 972c 013e 7b7d b23d 5eee 64bd dd3d 03be
00000010: bda4 80be f80a 843c cd4e 08be 0454 20bd
00000020: 90e6 533e 5ee5 d8bd af2d 46bd c742 2ebe
00000030: 96d9 bfbd eea4 2c3e 283d 54bd ae39 ec3c
00000040: 18b8 e53c 0a0d 833e 69be 9ebd 8133 d83e
00000050: 0b9a e9bd ef76 8cbd a3a9 7b3e 2362 2cbe
00000060: 6128 713e 5c1e 573c 76a0 bb3e 3def f13e
00000070: bd45 803d 8b71 fc3d cea9 123e 9ff3 443e
00000080: 8d25 4ebe bf08 8d3d 03f3 7ebe 27e5 883e
00000090: a5f1 3b3d 68e8 f63d 765f 0ebe d303 5abe
000000a0: 3b8e 52bc 32e2 3f3e dbf8 74bd fded 28bb
000000b0: 8ad2 d03e c508 9e3e 943a 76bd 79a7 163e
000000c0: f4e7 f23d cc57 bf3e a817 5c3d 3620 02be
000000d0: f2c9 a83a 294d bf3e 8980 0d3e b6ca 21bc
000000e0: d8b4 363e 0b3e b0bd c512 933e 101c 9c3e
000000f0: 12f3 eabd b068 643d ee4e 9f3e b2ab 3e3d

fc3.weight f4 [4, 64]
0.031424727 0.046823934 -0.21986532 0.01416886 -0.14975056 0.00065981055 -0.30203408 -0.0071960557
0.16891862 -0.3343245 -0.15886848 -0.14626262 0.35532168 0.0944605 0.1681406 -0.014538905
-0.112402424 0.052938707 -0.090619855 0.17757607 -0.38335335 -0.14746605 0.16965352 -0.16366246
0.08610053 0.3990158 0.20013079 0.24321659 0.066627026 0.26842475 0.140532 0.14143825
-0.07724389 -0.2801141 -0.1633244 0.019521052 0.17242129 0.2728008 -0.11325707 -0.14685643
0.30695564 0.19021617 0.1861554 0.6066146 0.12890582 0.19849055 0.09798966 0.024564315
0.3689689 0.31405258 -0.4370605 0.26358506 0.07520056 0.22247885 0.19363655 0.21723546
0.03336145 0.33463848 0.18407068 0.11470039 -0.18933794 0.13546753 0.14642091 0.24568565
0.45530418 0.22780626 -0.008238836 -0.11499932 -0.023720477 0.12505578 -0.16987227 0.1491468
0.13900271 -0.28451833 -0.027973706 -0.17994115 0.39448622 0.20425382 0.23429736 0.10527498
0.049710825 0.09426138 -0.007945843 0.23341632 -0.32722148 -0.18583809 0.13628083 0.11513423
0.09775961 0.21002655 0.06822658 0.19556151 0.039814677 0.10298019 0.21546303 0.11863833
-0.045479253 -0.3015731 -0.17112672 0.2279222 0.17683941 0.29729417 -0.039089773 -0.19597891
0.24813245 0.12726481 0.04594037 0.5710852 0.23923889 0.1945361 0.00036136224 -0.10045098
0.48812908 0.34095374 -0.086024776 0.06481573 -0.04887556 0.21593417 0.12283587 0.15564147
0.013208279 0.43385392 0.0466167 0.040205 -0.22858098 0.205437 0.1604333 0.097227365
-0.19308642 0.00019123107 -0.29217586 -0.19951741 -0.33284178 0.15726885 -0.02726979 0.14824817
0.06307249 -0.20092668 -0.15671593 0.054206986 0.33107838 0.24947874 0.2976935 0.07563382
-0.26710007 -0.042483374 0.24437 0.08083988 -0.13438097 -0.26310945 0.20182715 0.1008834
0.2245616 0.32161877 0.18136469 0.09157269 0.24277504 0.11626052 0.06091306 -0.032198396
-0.19475089 0.0590308 -0.12896141 0.24614662 0.21360877 0.1832173 -0.2279746 -0.29241464
0.050186083 0.18548338 -0.32068548 0.3077731 0.18555397 0.20261228 0.25585797 -0.33987212
0.2357486 0.3468595 0.043800965 0.041718833 0.13407335 0.1879757 0.008408101 0.35337266
0.103279985 0.43139067 0.15245906 0.11330541 -0.37660462 0.2162904 0.21309082 0.28592733
0.6960363 0.19755082 -0.20115554 -0.1619415 -0.1373524 0.11856946 0.1076154 0.31329674
0.11511472 -0.20109203 0.009957975 -0.49014425 0.27658743 0.15250546 -0.014998269 -0.31967673
-0.046476327 0.3091892 -0.24592903 0.13144796 -0.12611459 0.15888074 -0.1293792 -0.08880976
0.03520987 0.36345378 0.18086922 0.2142771 0.17974631 0.2667194 0.21990515 0.092112765
-0.22238849 -0.03354035 -0.26952276 0.07699009 0.26449162 0.29820842 -0.16722135 -0.25480112
0.2040119 -0.053123575 -0.104830004 0.66912717 0.2132466 0.37619042 0.069438666 0.011252339
0.26048508 0.14339949 -0.049645264 0.025759267 -0.18277156 0.21716668 0.06080321 0.11600825
0.24528304 0.10098171 0.22426333 0.14599405 -0.10038288 0.24283794 0.09324741 0.14053805
00000000: 37b7 003d 74ca 3f3d 6024 61be 8224 683c
00000010: 3658 19be 23f7 2c3a 36a4 9abe e4cc ebbb
00000020: 01f9 2c3e 952c abbe 6bae 22be dec5 15be
00000030: b9ec b53e 8274 c13d 0d2d 2c3e 9634 6ebc
00000040: 3e33 e6bd 42d6 583d e796 b9bd 80d6 353e
00000050: e446 c4be 5701 17be a7b9 2d3e 2297 27be
00000060: 7a55 b03d cd4b cc3e 16ef 4c3e c50d 793e
00000070: c073 883d f86e 893e 9fe7 0f3e 30d5 103e
00000080: 0b32 9ebd 1e6b 8fbe 833e 27be 9dea 9f3c
00000090: 358f 303e 8cac 8b3e 53f3 e7bd 8861 16be
000000a0: 4a29 9d3e 07c8 423e 859f 3e3e 184b 1b3f
000000b0: e3ff 033e 1b41 4b3e ceae c83d 1a3b c93c
000000c0: 7ee9 bc3e 80cb a03e 65c6 dfbe 9ff4 863e
000000d0: c002 9a3d 7fd1 633e a948 463e f972 5e3e
000000e0: 04a6 083d bc55 ab3e 067d 3c3e 0ae8 ea3d
000000f0: cee1 41be 00b8 0a3e 5def 153e 0595 7b3e
00000100: a11d e93e 0b46 693e 2ffc 06bc c384 ebbd
00000110: 7251 c2bc 9f0e 003e fff2 2dbe f0b9 183e
00000120: ba56 0e3e 63ac 91be 1d29 e5bc 7e42 38be
00000130: 19fa c93e ea27 513e a6eb 6f3e 699a d73d
00000140: 949d 4b3d 1c0c c13d 482f 02bc b004 6f3e
00000150: 9389 a7be 574c 3ebe 348d 0b3e 7fcb eb3d
00000160: 3136 c83d 3311 573e 61ba 8b3d 4741 483e
00000170: b714 233d 47e7 d23d 57a2 5c3e a7f8 f23d
00000180: 7448 3abd ca67 9abe d83b 2fbe 7064 693e
00000190: 6415 353e f136 983e 991c 20bd b2ae 48be
000001a0: 6f16 7e3e b551 023e f82b 3c3d a432 123f
000001b0: 0afb 743e 7934 473e 3875 bd39 3eb9 cdbd
000001c0: 0eec f93e 7d91 ae3e c22d b0bd 1cbe 843d
000001d0: bd31 48bd d91d 5d3e 5f91 fb3d 7a60 1f3e
000001e0: 8a67 583c 1a22 de3e 27f1 3e3d 00ae 243d
000001f0: 2211 6abe 145e 523e a148 243e 241f c73d
00000200: 72b8 45be 3385 4839 1398 95be 4b4e 4cbe
00000210: 3d6a aabe 160b 213e e564 dfbc 5ece 173e
00000220: 262c 813d b9bf 4dbe 247a 20be 2508 5e3d
00000230: 1b83 a93e 5b77 7f3e 486b 983e e7e5 9a3d
00000240: 57c1 88be 0c03 2ebd 213c 7a3e 618f a53d
00000250: 2a9b 09be 48b6 86be c7ab 4e3e f59b ce3d
00000260: 7af3 653e 37ab a43e aab7 393e 768a bb3d
00000270: 059a 783e ff19 ee3d f97f 793d 77e2 03bd
00000280: c76c 47be 48ca 713d 760e 04be dc0d 7c3e
00000290: 42bc 5a3e 519d 3b3e 2c72 69be 5fb7 95be
000002a0: ec8f 4d3d 5bef 3d3e e330 a4be 7094 9d3e
000002b0: dc01 3e3e 9879 4f3e d1ff 823e b803 aebe
000002c0: 1568 713e 9297 b13e a468 333d 5ee1 2a3d
000002d0: 864a 093e b47c 403e 22c2 093c 43ed b43e
000002e0: 7584 d33d 3ddf dc3e 3a1e 1c3e ab0c e83d
000002f0: 52d2 c0be 3b7b 5d3e 7b34 5a3e 1165 923e
00000300: 6f2f 323f c34a 4a3e b8fb 4dbe fed3 25be
00000310: 1ca6 0cbe 8cd4 f23d 7665 dc3d 6e68 a03e
00000320: 44c1 eb3d 12eb 4dbe c626 233c 30f4 fabe
00000330: de9c 8d3e 642a 1c3e 4dbb 75bc abac a3be
00000340: f65d 3ebd 0c4e 9e3e d2d4 7bbe 4b9a 063e
00000350: 2f24 01be a2b1 223e fb7b 04be e4e1 b5bd
00000360: 3a38 103d 9d16 ba3e c835 393e 756b 5b3e
00000370: 6b0f 383e 728f 883e d12e 613e 9ea5 bc3d
00000380: cfb9 63be 9b61 09bd e3fe 89be fbac 9d3d
00000390: 726b 873e c6ae 983e 133c 2bbe 4b75 82be
000003a0: 7fe8 503e 1b98 59bd 1db1 d6bd eb4b 2b3f
000003b0: 515d 5a3e 089c c03e dc35 8e3d bb5b 383c
000003c0: 4d5e 853e 51d7 123e d558 4bbd 1905 d33c
000003d0: 7828 3bbe f160 5e3e c90c 793d bc95 ed3d
000003e0: 7a2b 7b3e 80cf ce3d 49a5 653e 777f 153e
000003f0: 8a95 cdbd 82aa 783e 80f8 be3d 35e9 0f3e

fc3.bias f4 [4]
0.18148232 0.11204366 0.22466186 0.041191813
00000000: 80d6 393e 2577 e53d c20d 663e bfb8 283d
